results/dqn_blackjack.pth (torch, 79005 bytes, 6 tensors)

net.0.weight f4 [128, 14]
00000000: a25f 233e f404 26be 5cc9 8bbd 206c 643e
00000010: d808 593e 2017 103d 9556 57be ee26 5ebe
00000020: 4019 2ebd e27b 0c3e 5ac7 4c3e bcec 40be
00000030: b4bd 05be 4480 4ebe 6ae7 32be b09e d83d
00000040: 8bf1 803e b45c 3b3e c883 143d 617e 823e
00000050: 089d 913d c0a0 1e3c 2a1e 753e e854 c0bd
00000060: 2779 58be 88fc 813d a15e 5cbe 330c 34be
00000070: 3075 8cbc d056 603d bc45 69be ac5a f83d
00000080: 16c9 283e caa5 9abd b603 323e 4c7c 883d
00000090: 40af 19be 53a5 4cbe 50fb 5b3d a0d7 0a3d
000000a0: 29ab 4bbe 84c4 1cbe 25b6 babe f6f3 003e
000000b0: 16a0 fa3d 9955 4f3d c670 96bd 1eca 233e
000000c0: eec3 a33d c293 6a3e 7117 173e 833a 62be
000000d0: 418b 803e 53bb 37be 7b61 873e 855c 9e3d
000000e0: 458c 89be d571 7fbb f945 da3d 6feb eabd
000000f0: 7357 07be aceb 983d e5d3 713d 355f 09be
00000100: 5a19 933d 0342 26bd 71bc 413e d769 8c3e
00000110: 21be 8b3e 3a34 0e3e 1c2a d9bd 9ec2 4bbe
00000120: a5ca 5fbe 800c 163c 1c34 1ebe 5887 9bbd
00000130: 202f 103e 9cb9 f5bd 0088 213a b4cc d43d
00000140: 28a1 ed3d 1091 f2bd dd26 87be eada 22be
00000150: 28e0 2a3d ec1f 80bd 4a33 80be a8b1 a93d
00000160: 9c5f 803d 9490 82be 329a 633e 6c2a 91bd
00000170: f0a5 343d fa7d 69be 4a59 703e 4389 23be
00000180: a942 65be 38b5 37be 5a4c 62be c22f aa3e
00000190: 49ec d13d 3018 7ebe ca4c 873c 474c 7abc
000001a0: 369f 963e ce5a 9fbc b68a 9b3d f504 403e
000001b0: b15c 493e 1a2a 27be ade6 f83d b1b2 00be
000001c0: 9eb0 323e a4bb 5cba a681 49be 41e1 9dbc
000001d0: be0b a2bd 9a30 a6bc 5d62 37bd eaa4 b93d
000001e0: 7ea8 3e3e fde8 863e f408 bcbd 56a1 3bbe
000001f0: e06a 683e 842d 333d 8064 fc3c 76e9 7d3e
00000200: dea9 89bd 5e92 653e 04f3 33bd d064 3dbe
00000210: 3aa1 87be 7869 ef3d 4ea2 96bd 50e7 eebd
00000220: 849f 8fbd be25 2e3e c618 3fbe f384 59be
00000230: 2b03 42be 403b 0a3c e076 33bc fcc4 51be
00000240: aa84 6f3e 8845 2cbe 22b9 b2bd 7648 053e
00000250: c079 d0bd 7c98 0ebe f43b 9b3d a84e eabd
00000260: b0a8 aa3c 6019 513e a6c9 04be 2ea9 44be
00000270: 46d8 9abd 9e6c 73be 76f9 773e b69f 7b3e
00000280: 90b4 4e3d e009 25bc c2ec 663e 584d 29be
00000290: 8031 933b 7055 ccbc 9e33 4dbe 006a 943a
000002a0: 5234 ec3e 5ce2 83bc 1048 963d 422d 20bc
000002b0: fdcd 493c 86d0 40be 67bf 623e 56c8 31be
000002c0: 98d1 50be ea19 03be 62bc df3d a896 48bd
000002d0: 6e74 dc3c 63e5 5c3e f2b8 bd3c 9cfd 683e
000002e0: 1b33 253d c83d 463e 1c84 c7bd 7e21 ce3d
000002f0: 7816 4d3e 06c4 47be 4aca 123c bcf7 373e
00000300: 6053 6b3e bf97 1b3e f1b8 4d3c 0635 263c
00000310: 0e0a 403d 758f 8a3d afd6 87be 0ab3 68be
00000320: aa2b 9c3e a068 cb3d df7b cc3d b11c 953e
00000330: 3467 89bc 960f 2cbe d49d c9bd 4219 9e3e
00000340: 3624 21bd caad fa3c 01c6 88be 6e2c 6fbe
00000350: f04f cb3c 94c6 fb3d a00d 0ebe 3e98 0a3e
00000360: 34bd 06bd 3f7c 80be 7003 80bc 5174 32be
00000370: e112 5cbe 769d 77be c590 6fbe 328d 17be
00000380: f711 833e ba0a 753e c0fd ccbb b0af e2bd
00000390: 96cc ccbd cacb 01be 9056 833c bcd7 003e
000003a0: 4a90 fcbd 9744 05be c0fc 193d d8d6 0a3d
000003b0: fae6 82be d047 9ebd 4ec9 b8be 79af 603e
000003c0: 0297 17be c0f8 1a3e a613 323e e118 a43e
000003d0: 3588 513e 2747 a5bd 4597 533e a060 e03d
000003e0: e31b 053e 30f1 40be 3e0a adbd 8452 8a3e
000003f0: d631 093d 5f1c 483e b866 06bc fc03 99be
0.1595445 -0.16212827 -0.06825516 0.22306871 0.2119478 0.035178304 -0.21029122 -0.21694538
-0.04250455 0.13719133 0.19997922 -0.18840307 -0.13060647 -0.20166117 -0.1747109 0.10577142
0.25184283 0.18297082 0.03625849 0.25487044 0.071100295 0.0096818805 0.23937288 -0.093911946
-0.21139966 0.06346995 -0.21520473 -0.17582779 -0.017145723 0.05477029 -0.22780508 0.12126669
0.16482958 -0.07551153 0.17384228 0.06664333 -0.15008259 -0.19984941 0.053706467 0.033897042
-0.19889511 -0.1530934 -0.3646709 0.12593064 0.12237565 0.05061874 -0.073457286 0.1599507
0.07996355 0.22907928 0.14755036 -0.22092633 0.25106242 -0.17942552 0.2644156 0.077324905
-0.2686483 -0.0038977761 0.106578775 -0.11470687 -0.13216953 0.07466826 0.05903997 -0.13415225
0.0718257 -0.040590297 0.18919541 0.274245 0.27293494 0.1388711 -0.10603735 -0.1989846
-0.21854647 0.009158254 -0.15449566 -0.07594174 0.14080477 -0.11998293 0.0006161928 0.103906065
0.11603004 -0.11844075 -0.26396838 -0.15903822 0.04171768 -0.062560886 -0.2503913 0.08285838
0.06268236 -0.2550093 0.2222679 -0.070881695 0.044103563 -0.22801962 0.23471561 -0.1597033
-0.2238871 -0.17940223 -0.22099438 0.3323956 0.10250146 -0.24813914 0.016516108 -0.015276975
0.29418343 -0.019452479 0.075948164 0.18751891 0.19664265 -0.16324654 0.12153373 -0.12568165
0.17450187 -0.00084202946 -0.19678363 -0.019272448 -0.07912396 -0.020286847 -0.04477154 0.09064658
0.18618962 0.2634963 -0.09181395 -0.18323264 0.2269702 0.04374458 0.03080964 0.2479609
-0.06721853 0.22419116 -0.04393293 -0.18495488 -0.26490194 0.116900384 -0.07355176 -0.11665213
-0.07012847 0.17006585 -0.18661794 -0.21242122 -0.18946521 0.008436978 -0.010953635 -0.204853
0.23390451 -0.16823399 -0.087267175 0.13015923 -0.10179472 -0.13925356 0.075797945 -0.11440784
0.02083239 0.20419836 -0.12967548 -0.19205162 -0.07560782 -0.23771903 0.24216256 0.24572644
0.050465167 -0.010073155 0.22551253 -0.1653341 0.004491985 -0.024943084 -0.20039222 0.0011323094
0.46133667 -0.016099147 0.073379636 -0.009776415 0.012317178 -0.18829545 0.22143327 -0.17361578
-0.20392454 -0.12802854 0.10924603 -0.048971802 0.026910987 0.21571879 0.023159478 0.22752994
0.04033194 0.19359505 -0.09741995 0.10064982 0.20028102 -0.19508371 0.008959362 0.17965597
0.22981024 0.15194605 0.0125563005 0.010144478 0.04688459 0.067656435 -0.26530978 -0.22724548
0.30502063 0.09932065 0.09984564 0.29123452 -0.016772844 -0.1680282 -0.098445565 0.30878645
-0.039341174 0.030600447 -0.26713565 -0.23356792 0.02481839 0.12293735 -0.13872385 0.13534638
-0.032895282 -0.25094792 -0.01562664 -0.17427184 -0.21491577 -0.2418116 -0.23395069 -0.14799955
0.25599644 0.23929873 -0.0062558353 -0.11068666 -0.09999959 -0.12675396 0.016032487 0.12582296
-0.123322085 -0.13014446 0.037594557 0.033896297 -0.25566846 -0.07728541 -0.36091083 0.21941938
-0.14803699 0.15133953 0.17390308 0.3205023 0.20462115 -0.08070212 0.20663173 0.1095593
0.12998919 -0.18842006 -0.08449219 0.2701608 0.033494793 0.19542073 -0.008203201 -0.29885852

net.0.bias f4 [128]
00000000: b0e8 c9bd 10f0 56be f245 23be 2366 823e
00000010: 27e5 9fbd 7e99 21be 5201 61be 379b 4abe
00000020: d545 8a3d 7cbe d1bd 0006 44be e001 003d
00000030: 20df fabd 916c 02bd 910c a2bc 65db 813e
00000040: a82d db3d da33 57bc ceb6 91bd c0c7 f03c
00000050: 4cd2 cabd 61b9 f5bc 97b9 083e 676b 51be
00000060: 8ac1 88be 06bd a03d 1357 14bd 103f 9c3d
00000070: 1a0e 71be 2acf 9f3d 3126 013e 0327 81be
00000080: 4606 61be 81ac 5b3e 264b b6bd bc95 dcbc
00000090: a544 833e 14e1 1cbe 3ec3 8cbd 158f 1e3e
000000a0: e0e0 6abe 8805 2d3d 8ce6 df3d ca4b 4dbe
000000b0: d29f 2e3e 7b2b 773d b7ce 00bd fc2e 1e3e
000000c0: a26e b6bd 784c 82bc 40ef 003d 54c7 333e
000000d0: cc04 38be b7d3 20bd d1d4 903d 6ede d9bd
000000e0: be9d d23d a395 75bd 68b3 b4bd 5d11 88bd
000000f0: 101b 983d df4b efbd ccd8 5e3d a85c 5abe
00000100: ca50 54be ac3e 99bd 8757 4bbe 529a 64be
00000110: 7c94 1dbe 9004 1f3e 7874 4a3d 9813 57bd
00000120: 920a 86be 4855 313e 8535 bfbd b7d2 89be
00000130: 0dc9 893d 8012 b7bd 28d4 d3bc ccdf 8cbe
00000140: 2f1f 1e3e 33fc 4c3e 99bf 453d 657c 5f3e
00000150: 20a5 dcbc f4eb 53bd 4a65 7abe 29f0 8f3e
00000160: bd60 273e 204a 3d3c a9a5 513e fc85 8c3c
00000170: eaf4 f53d d794 823e d4b2 be3d 270f 4dbe
00000180: 51d7 45be 1e89 cdbd 4404 8d3e b124 1a3e
00000190: 8119 593d b4b4 ec3d db42 46be 18f3 353e
000001a0: 506b 10be 00b2 c13b aaec e7bd ff41 52be
000001b0: a0fe 36be 7ca7 3e3d 9061 093e 096a 51be
000001c0: a19c 50bd 7781 e9bd fc52 983d 17a7 003d
000001d0: 2db4 4fbe 7523 8c3e c4aa dfbd 8bf4 d2bd
000001e0: 9e20 2f3e 956a 563e 9b77 b5bb 753e 86be
000001f0: 4e9e bf3d 2da9 203d b1d7 dabd 8b18 9abd
-0.09858835 -0.20990014 -0.15944651 0.2546855 -0.07807379 -0.15781209 -0.2197316 -0.19785772
0.06751601 -0.1024141 -0.19142914 0.03125179 -0.12249589 -0.03184182 -0.019781383 0.25362697
0.107020676 -0.013134921 -0.07114945 0.029392123 -0.09903392 -0.029995622 0.13352047 -0.20451127
-0.2671016 0.07848553 -0.036215853 0.07629216 -0.23540536 0.07803185 0.12612225 -0.25225076
-0.2197505 0.21452524 -0.08901052 -0.026926868 0.2563831 -0.15320235 -0.06873177 0.15484269
-0.22937346 0.042241603 0.10932645 -0.20048442 0.17053154 0.0603442 -0.03144714 0.1544761
-0.0890782 -0.015905604 0.031478167 0.17556506 -0.1797058 -0.039264407 0.070718415 -0.10638128
0.10283993 -0.059957158 -0.088232815 -0.06643937 0.07427037 -0.11684393 0.054405972 -0.21324408
-0.20733944 -0.07482657 -0.19857608 -0.22324494 -0.15388674 0.15529084 0.04942748 -0.05250892
-0.2617994 0.17317688 -0.0933638 -0.26918575 0.067278005 -0.089390755 -0.025858 -0.27514493
0.15441583 0.20018081 0.048278425 0.21824796 -0.026934206 -0.051738694 -0.24452701 0.28112915
0.16345496 0.011553317 0.2047335 0.017153732 0.12009604 0.2550418 0.093114525 -0.20025311
-0.19320418 -0.10035919 0.27542317 0.15053059 0.053002838 0.11557904 -0.19361441 0.17768514
-0.14103436 0.005911112 -0.11324437 -0.20532988 -0.17870569 0.046546444 0.13416123 -0.20450605
-0.050930623 -0.114016466 0.07437703 0.03140935 -0.20283575 0.27370802 -0.10921243 -0.10300549
0.17102286 0.20939095 -0.0055379397 -0.26219526 0.09356366 0.03922384 -0.10685671 -0.075242124

net.2.weight f4 [128, 128]
00000000: a8ca 47bd bc2e e4bc 871f 01bd a82b 543d
00000010: 94de 093d 01f1 15bd 3b32 a63d 2351 5c3c
00000020: 393a 863d d446 90bd 6592 9a3d 64c9 073d
00000030: e519 7a3c 8891 17bd 1dca dd3d d1d0 09bd
00000040: 0af5 3c3d b57e 96bd dbfd 42be 18ce 1bbd
00000050: 0036 a6bc d9ab 8abb a5d3 42bd 6847 563c
00000060: 92c7 55bd acac babd cccf dbbb 9b5c b33c
00000070: f958 db3b c234 913d 0fe8 65be 2bb2 59bd
00000080: 9631 083d 68e3 cebd 7633 3ebd 29ea c83c
00000090: 51e4 d53d 5a10 e0bc 209c 9fbd 2aaf 37bd
000000a0: 829a 543d 9389 053e a4a6 23bd 8e91 303d
000000b0: 411a adbc 62ae ba3d ee15 0cbe 9ac2 cbbc
000000c0: 8c5a aabc 0d93 793d cd87 993d 900b 953c
000000d0: 680b 373d 6256 bdbd c45c b63c 40e2 8ebc
000000e0: 869b 74bd af89 dcbc 0b9c 27be 5fea fc3c
000000f0: 1ee7 afbd 717a 663d 2599 7abd 6ca9 d3bc
00000100: e4a2 bf3c 303a ba3b a1e5 07bc 93ef ad3d
00000110: 35b8 ac3d 7506 8b3d f112 a33d 4c92 063d
00000120: c235 51bd ae82 243d a085 e23c e8d8 d8bd
00000130: d3bd 8d3d 5cdc 823c 0d88 0ebd 8668 6abd
00000140: fed8 ac3d c086 f439 07ab 95bd f0fa 443d
00000150: e965 633d 003e a03a 8c48 acbd 4676 cb3c
00000160: ad5e bb3c 94d7 4ebd 55e8 89bd 7eff 29bd
00000170: eb34 ee3c e034 48bc 74b5 2ebd 00c5 033d
00000180: 7daa 89bd 6dc5 0cbd 956a 7cbb 84de fa3c
00000190: e283 bc3d ec08 fc3c 46ab 3a3d face 433d
000001a0: d175 0a3d 6e34 30bd ada8 0dbd 1875 003e
000001b0: d096 bb3b 445b 553d 05d0 793d c242 d13c
000001c0: ec47 b4bb d6b1 1cbe a8f1 9cbd ed0b 9e3d
000001d0: 28e4 983d c820 30bb 6857 643c 79c7 093d
000001e0: d36d 2dbd 6567 8a3c c9b5 203d e59c 2cbc
000001f0: fa1c 7ebe 03ef 2e3d d67e 333d 7fb6 e83c
00000200: 68ea 71bc b83b e63c cfc0 843d da77 913b
00000210: 3a85 d03d de40 81bd caaf 0ebd 397b 983d
00000220: 56a8 94bc 66dd 7f3d a807 a93c cf10 933d
00000230: b135 ffbd d048 aa3c 22ce 073e 52e0 8fbd
00000240: b075 9c3c a81d 213d 243e 92bd 512d b13d
00000250: 1ace 9cbd a7e1 b03c fce2 78bd 114c 47be
00000260: d65b a6bd 19d6 643d 67c0 4fbd 2874 9bbc
00000270: 9190 debd 305e b5bc db99 893e 4015 ab3c
00000280: e84e 383c 2e26 303d b8c8 373d 9808 a93d
00000290: 5b65 583d e6be 393d 7018 58bd 1302 96bd
000002a0: eb45 9b3d c27c dabd 9c8b dfbc 1739 4cbd
000002b0: d21d 39bd 15a7 0bbe 3d29 bc3d 62d9 e6bc
000002c0: 3c51 a2bc dc1d e43b 8301 53bd 0d49 a53d
000002d0: 4cdb 19bd d6a5 f53c 2ba3 643d a173 77bd
000002e0: dd51 cfbc 6b1f 283d b3df d6bd 67c7 7dbd
000002f0: 00cd c63c aa3f 543d 448b 963d 8d30 84bd
00000300: cc1d 66bd 2c0b 90bc 6e47 ebbd 00ae 12bb
00000310: d0ba 9cbd 669a 5cbd f53f a23d 048d a0bc
00000320: 0847 eebc 50a5 81bb fc7b 08bd 1db0 cbbd
00000330: 56af aabc 2927 af3d defb a73c 10aa 9b3d
00000340: f71e dd3d bbb0 5f3c d7e1 3a3c b995 3f3d
00000350: f8e5 6f3d 1889 473c 48e7 0b3c c05b dbbc
00000360: 9167 cd3c 6a2d 663d ec6d da3c 2627 b53d
00000370: 7ff1 e8bd a5c5 ca3d 9077 9ebd e6a7 9fbd
00000380: 14d2 19bd 925a 92bb 68d4 ff3c 0e66 033c
00000390: be77 4bbc 3e7b 393d 4ea9 79bd 2adc da3c
000003a0: ead5 6e3d bf05 67bd e61e 5239 1c03 b23e
000003b0: 34c4 9fbc e8d0 62bd c8ed 053c 1b6a 7d3d
000003c0: c782 023c bf54 b63c 05e5 ba3c ed78 1fbd
000003d0: 4750 443d d22b 7abd 6225 77bd b525 36bd
000003e0: 32cd 7f3d 3215 2f3d 2dde c6bb 052b 803c
000003f0: ca8f b03d 2009 adbd a845 f3bc 6967 4f3d
-0.048777252 -0.027854316 -0.031524207 0.051799446 0.033659533 -0.036606792 0.081150495 0.013447079
0.06554074 -0.070447594 0.07547454 0.033151045 0.015264963 -0.037004024 0.10829566 -0.03364641
0.046132125 -0.07348386 -0.1904215 -0.038038343 -0.020289421 -0.0042319116 -0.04756512 0.013078548
-0.05219228 -0.09114966 -0.006708121 0.021894744 0.006693956 0.07090141 -0.22451805 -0.05314843
0.033250414 -0.10101968 -0.046435796 0.024525719 0.104439385 -0.027351547 -0.0779345 -0.044844784
0.051905163 0.13040762 -0.039953843 0.04310756 -0.021130683 0.09115292 -0.1368024 -0.024873067
-0.02079513 0.060931254 0.07496605 0.01819399 0.044688612 -0.09244992 0.022261031 -0.017441869
-0.05971863 -0.026921121 -0.1636812 0.030873476 -0.08589004 0.056269113 -0.061181206 -0.025837623
0.023393102 0.005683206 -0.008294494 0.08492961 0.08433572 0.06788341 0.07962597 0.032854363
-0.051076658 0.04016369 0.027651608 -0.105882466 0.06920972 0.015974216 -0.034797717 -0.057228588
0.084398255 0.00046639703 -0.073080115 0.048090875 0.05551711 0.0012225509 -0.08412275 0.02483667
0.022872293 -0.05049856 -0.06733767 -0.041503422 0.029077968 -0.012219638 -0.042653516 0.032170296
-0.06721971 -0.034367967 -0.0038515676 0.030623682 0.09204842 0.030765973 0.045573495 0.04780481
0.033803765 -0.04301875 -0.03458469 0.12544668 0.0057247654 0.05208899 0.0609894 0.025544528
-0.005501738 -0.15302214 -0.0766328 0.077171184 0.07465392 -0.0026875008 0.013936855 0.033637498
-0.042341065 0.016895005 0.039235864 -0.010535453 -0.24815741 0.042708408 0.043822132 0.028407333
-0.014765359 0.028104648 0.06482088 0.0044393362 0.10181661 -0.063112006 -0.034835614 0.07445378
-0.018146675 0.062467 0.020633534 0.0718094 -0.12461413 0.020786673 0.13262227 -0.070252076
0.019099087 0.039334923 -0.07140759 0.086512215 -0.07656498 0.021591974 -0.060763344 -0.19462611
-0.08122985 0.055868242 -0.0507206 -0.018976286 -0.108674176 -0.022139639 0.26875195 0.020884156
0.0112492815 0.04300516 0.044869155 0.08253592 0.052831035 0.04534807 -0.05275768 -0.073246144
0.07581695 -0.10668327 -0.02728825 -0.049859133 -0.045194454 -0.13637955 0.09187553 -0.028179828
-0.019814126 0.0069615673 -0.051515114 0.08070574 -0.037562653 0.029986303 0.05581967 -0.060413007
-0.02530759 0.041045588 -0.10491886 -0.061957743 0.024267673 0.051818527 0.073507816 -0.06454573
-0.05618076 -0.017583452 -0.114882335 -0.0022381544 -0.07652819 -0.053858183 0.07922355 -0.019598491
-0.029086605 -0.0039564744 -0.033321366 -0.099457 -0.02083556 0.08552391 0.020505842 0.07600796
0.10796922 0.013652976 0.0114063835 0.046773646 0.058568925 0.012178682 0.0085390285 -0.026777148
0.025073798 0.056195654 0.026663743 0.088453576 -0.11374187 0.09900979 -0.077376485 -0.07795696
-0.03755386 -0.004466363 0.031229213 0.008019937 -0.0124186855 0.04528355 -0.060952477 0.02671631
0.058309473 -0.056401964 0.00020038671 0.34767997 -0.019502737 -0.05537501 0.008174367 0.06186877
0.00796575 0.022257207 0.022814283 -0.038933683 0.04792812 -0.061076947 -0.060338385 -0.044469554
0.06245155 0.042744823 -0.006068966 0.015645513 0.086211756 -0.08449006 -0.0296963 0.05063573

net.2.bias f4 [128]
00000000: 8669 99bc f919 723d 73d0 13bc 869d 70bc
00000010: 5bf1 383d 9f32 bdba 8315 173b 0650 173d
00000020: 60bd 87bb 09a3 383d f08e b7bd e862 2dbd
00000030: 6d52 bcbd 5a6c 95bb 82e0 043c 99cd 93bd
00000040: 2dff d73c 5fff 4fbd 34e1 7d3c e8ac d23c
00000050: 70b3 013d 59eb e13d 3d27 a2bd 02ef 203d
00000060: c01c 383d 1025 f7bb 72de 323d e603 d53c
00000070: 5581 c63d 6ce2 e13c 5dcc 443c 42ef 0339
00000080: 41d0 6c3d 1bb7 09bd fb32 ba3d 312d 9a3c
00000090: c467 5b3b f1b1 d33c 555c 74bd 085a 91bd
000000a0: 7c16 073e 79a6 be3c 9ec8 91bd acda a93d
000000b0: 1d5a 4dbd 49a9 04bd 2a07 cfbc c50f 973b
000000c0: 9ba0 7c3b a5ff 85bd eac3 07bd 4bfe 1ebd
000000d0: b52b a3bc a80f 6b3c 6441 d2bc 38ed 95bc
000000e0: bb01 853b cb0e 95bd 63a2 963d c2f7 c53d
000000f0: 41bc b9bd c585 88bc 9bf5 933d f4a5 553d
00000100: 10ca 8d3c 4768 893d 3aa6 703d f6dc c93c
00000110: 306d 73bc 58dd e43c 676c 78bc 0f08 8bbd
00000120: 6b80 f73c 7e24 ee3d af10 ebbd c6fe 7d3d
00000130: eea5 5b3d 994c 643d 00f9 6bba be18 b9bc
00000140: 9c16 8b3d 43f5 91bd de02 583d 3223 b03c
00000150: b4bc d33c 35bf a23d 79f0 a3bd ab7a c03b
00000160: 4ff4 56bd 818a 843d f5bb 83bc a0fd 053d
00000170: 2a80 95bd c224 59bd e494 8abd c6ec 43bd
00000180: 01cf bf3b 105a 913c 681b 62bd 5fdc 813b
00000190: cd4f 44bd a966 84bd 56ec 403d 7b4b 85bd
000001a0: c560 8bbc c1dc dbbc 2ffc 6abd b5e8 e53b
000001b0: a114 7b3d 3b35 d53c d439 ebbc a8c7 2e3d
000001c0: bb1b 803d ad1e 82bc 1785 a1bd c223 603d
000001d0: 0de6 4c3d cfac 8b3d 6c40 ca3d caef 8abd
000001e0: 1ee8 333d 0507 71bd 7041 6d3c a79c b33d
000001f0: 4d49 9abd b478 a23c ce5d 9a3d 8ee5 163d
-0.018727075 0.0591068 -0.009021866 -0.014685994 0.04515205 -0.0014434642 0.0023053593 0.03694155
-0.0041424483 0.045077357 -0.0896281 -0.042330652 -0.09195409 -0.0045600357 0.008110167 -0.07216949
0.026366794 -0.05078065 0.015495587 0.025717214 0.031665266 0.11031217 -0.0791764 0.039290436
0.044949293 -0.00754226 0.04366917 0.026002835 0.09692637 0.027573787 0.012011615 0.00012582264
0.057815794 -0.03362189 0.09091755 0.018820377 0.0033478597 0.025841685 -0.059658367 -0.0709725
0.13192171 0.02327274 -0.07118343 0.082936615 -0.050134767 -0.032388005 -0.02527197 0.004610034
0.0038547877 -0.06542901 -0.033145823 -0.03881673 -0.019918302 0.014346994 -0.025665946 -0.018301591
0.004059044 -0.07278212 0.073551916 0.09666397 -0.0906911 -0.016665349 0.0722458 0.05216022
0.017308265 0.067093424 0.058752276 0.024641495 -0.014857575 0.027937576 -0.015162564 -0.067886464
0.030212602 0.11628054 -0.114777915 0.06201055 0.05362504 0.05573711 -0.00090016425 -0.022594806
0.06791422 -0.07126858 0.05273711 0.021501157 0.025846817 0.07946626 -0.08004851 0.005873998
-0.052479085 0.0647173 -0.016080836 0.03271258 -0.07299836 -0.05301357 -0.0676668 -0.047833227
0.005853534 0.01774314 -0.055201918 0.003963038 -0.047927666 -0.06464893 0.047100388 -0.065085374
-0.017013917 -0.026838662 -0.057369407 0.007016266 0.06129897 0.026026359 -0.028714098 0.042670876
0.06255289 -0.015883768 -0.07886713 0.0547216 0.05002408 0.0682007 0.09875569 -0.067840174
0.043922536 -0.058844585 0.014480934 0.087701134 -0.07533512 0.019832946 0.07537423 0.036840014

net.4.weight f4 [4, 128]
00000000: cd0d 383c 4967 e13b ffd3 b4bd 1a6d 153e
00000010: 3f2f 643e 5c1c 613e 7ca6 33be 4a21 b2bd
00000020: 52eb 74bd 6120 2d3e 0db9 d43d 47ed 5bbd
00000030: 367a 813d 09af 10be 4d07 fcbd d674 453e
00000040: 434a f13c 781d cfbd dfb7 b83d af4b dd3c
00000050: dd70 e33d 39cf f6bd 5f69 8f3e 882a fd3c
00000060: 1028 14bd 28e0 f3bc b289 1c3d 88d9 54bd
00000070: 0760 99bd 1e19 0f3e 1073 9e3e b01a c6bd
00000080: 950e e23c 63bd 69bd 4f1f 0ebe 8624 bebd
00000090: f2aa 383d 2a10 923d 9aca 103d 0830 503d
000000a0: 7495 02be 3956 b53d 280b 943c c4ca 54bd
000000b0: 488e f03c 1487 323e 787f c73d bcf5 a7be
000000c0: 6a17 503d 9ac3 173d ac28 d9bd 8892 ccbb
000000d0: 7254 b3bc 60a6 143d bdbf c2bc 5a56 073d
000000e0: d44f 1c3d 5dad 1dbc 8acb bdbd 4084 80bd
000000f0: be73 9f3d a49e 32bc a02f e93b df24 613d
00000100: 5205 383d 761e e6bd dfc2 9dbd 0cbd ad3d
00000110: 150d a33d a084 d0bb cde4 73be 6e4d 683d
00000120: 99e8 cb3d f944 6abd 0ef6 623e 3213 a1bd
00000130: deaf 1d3d 5c68 debd 489d b73c 80c5 95bc
00000140: c575 a43d 0beb b43d 5a4c 58bc 29a1 06bd
00000150: dc30 86bd 5167 9b3d d5b0 febc 4fe3 5fbd
00000160: 9639 1a3d 0d8f 52bd baac 9ebc b755 92bd
00000170: 3dd0 49bd c390 0ebd d9bc 80bd 9c07 29bd
00000180: 9da8 63bd 60e0 9abd 4fbd 65bd 8097 14bd
00000190: b566 5dbe 5ca9 42bd 4dbc 513d 621f 4dbd
000001a0: 0032 ac3e b26d d93d 5814 0bbd 8636 143c
000001b0: d379 b4bd 6d47 bfbd cee0 80bd 1e82 243e
000001c0: e9bf 76be 9285 1bbe 2313 bd3c b8a9 063c
000001d0: fc69 14be 8885 2c3c 251d 1dbe 2e74 e73d
000001e0: ea19 52bd c264 15bc 78f3 38bc fe77 cfbd
000001f0: b4a5 103d 6ecf 573d 0c98 ffbe 6a8f 5f3d
00000200: 4583 95bd ff30 babd 3987 b9be 22f8 92bd
00000210: a00c a6bd c154 27bd ef2e 62bd 8899 1bbc
00000220: cee7 a0bd 6b62 673f 5f56 e43d 502f 94be
00000230: 5481 993d 1047 babd a320 1d3d b173 0abd
00000240: a161 58be c252 043e d993 b7bd 3182 1fbd
00000250: 411e 8fbd 5661 09bb b847 f63c 5058 c0bc
00000260: deb5 63bf 5c19 0a3d 888c 2dbc 9031 d73d
00000270: f87f 95bb 15ba a9bc 07ab 173f c64b 11bc
00000280: 89c6 ecbc d8cf 443c 9a88 6cbd 0584 8a3d
00000290: 5018 f9bd 65fb b7bd ba7d 90bc 4255 013d
000002a0: b649 e1bd 402d 053e 5529 9a3d 5444 f8bb
000002b0: b0d8 43bd 4119 04bd 046b d8bc 09fb 1dbe
000002c0: 7eb6 213e 7a9d 203d 0d58 513d 2b57 adbd
000002d0: 3219 a3bd 209e 3a3b fa0f 333d 46d7 713d
000002e0: 2cdb ae3c 47ba f03e 53de f8bc 0308 7dbf
000002f0: 33c8 9cbd 6d9d 6d3d 5052 c7bb f34d 4ebe
00000300: 5f09 85bd 3dfc 18be 8e78 1c3d 644a f83d
00000310: 20e3 e3bb c01c 0abc 9e43 98bc e0e4 22bb
00000320: ac05 0e3d 9204 59bf 1289 973d 3c74 cdbc
00000330: b56e 96bd 521f 6c3d c3b3 56bd 2522 45bd
00000340: 2078 ae3c 0873 163c 56a4 00be bdcd 643d
00000350: 50ba 453c 8ea3 643d b833 df3d 68b0 e83c
00000360: 316c 02bd 5ba6 32be dc62 083e c8c0 93bd
00000370: 1a7f 983d 07f7 823d e999 803d fc25 b1bc
00000380: ec2d 723b 1065 be3c c02d 29bb 0fe6 833d
00000390: 6a67 3b3f d683 8fbd 3f12 08bc c8db 89bd
000003a0: 4e22 283e a918 623d c013 0d3e 495d e53d
000003b0: 8fef 6abd af53 8abc 20b1 1a3c 2be5 373f
000003c0: 7d2a 0ebe 6f81 42be 1a05 1c3d ecb9 ce3c
000003d0: 30d6 8abc e6e6 6c3d dac2 50be cbc0 c7bc
000003e0: f95e 6f3d 65a0 85be fc07 cabc 9758 5cbd
000003f0: 466d 9339 e36e 89bd 805f fbbd f2a7 98bd
0.011233759 0.0068787676 -0.088294975 0.145924 0.22283648 0.21983474 -0.17543977 -0.08697756
-0.05979473 0.16906883 0.10386858 -0.053693082 0.06322138 -0.1412927 -0.1230608 0.1928285
0.029454356 -0.101130426 0.09019446 0.027013628 0.11105511 -0.12051243 0.2801008 0.03090407
-0.03617102 -0.029769972 0.038217254 -0.051965266 -0.07489019 0.13974425 0.3094716 -0.09673059
0.027594844 -0.05706538 -0.13879131 -0.0928431 0.0450849 0.07131989 0.035349466 0.050827056
-0.12752324 0.08854336 0.018071726 -0.051951185 0.02936472 0.1743434 0.097411096 -0.32804668
0.05080358 0.037051775 -0.10603461 -0.006243054 -0.021890853 0.03629148 -0.023773069 0.033041336
0.038162068 -0.009623853 -0.092673376 -0.06275225 0.07785748 -0.010902081 0.007116273 0.054966804
0.04492695 -0.11236279 -0.07703184 0.084833235 0.079614796 -0.0063634664 -0.2381775 0.056714468
0.09956474 -0.057194684 0.22164175 -0.07864989 0.0384978 -0.10859749 0.022413865 -0.018282652
0.08030275 0.088338934 -0.013201797 -0.032868538 -0.06552288 0.075880654 -0.03109018 -0.054660138
0.037652574 -0.051405955 -0.019369472 -0.07145255 -0.049270857 -0.034806024 -0.0628602 -0.041267022
-0.055580724 -0.075623274 -0.056088742 -0.036277294 -0.21621211 -0.047524795 0.05120497 -0.050078757
0.33631897 0.10616626 -0.03395495 0.0090462025 -0.088122986 -0.09339795 -0.06292878 0.16065261
-0.24096645 -0.15187672 0.023080414 0.008219175 -0.14493555 0.010529883 -0.15343149 0.113014564
-0.051294245 -0.009118261 -0.011288516 -0.101303086 0.035314277 0.052688055 -0.4992069 0.05458013
-0.07300428 -0.090913765 -0.3623598 -0.07176234 -0.08107877 -0.040852312 -0.05522054 -0.009497054
-0.07856713 0.9038455 0.111492865 -0.28942347 0.074953705 -0.09095585 0.038361203 -0.03380174
-0.21130992 0.12922195 -0.089637466 -0.03894252 -0.06988192 -0.0020962558 0.030063495 -0.02347961
-0.8894938 0.03371559 -0.010592587 0.105075 -0.004562374 -0.020718614 0.5924534 -0.008868163
-0.028903263 0.012012444 -0.05774746 0.06763462 -0.1216284 -0.089834966 -0.017638076 0.03157545
-0.11000387 0.13005543 0.07527415 -0.0075765047 -0.04781407 -0.032250647 -0.026418217 -0.15427794
0.15792271 0.03921268 0.051109362 -0.084638916 -0.0796379 0.0028475598 0.04371641 0.05904319
0.021344744 0.47017118 -0.03037945 -0.9884035 -0.076553725 0.05801146 -0.0060828105 -0.20146923
-0.06495928 -0.14939971 0.038200907 0.12123564 -0.0069545656 -0.008429706 -0.01858693 -0.0024855658
0.034673378 -0.847726 0.07399191 -0.025079839 -0.073453344 0.057647057 -0.052417528 -0.048128266
0.021297514 0.009182699 -0.12562689 0.05586027 0.012068346 0.05582004 0.108985364 0.02840443
-0.03184146 -0.17446272 0.13318962 -0.072145045 0.07446118 0.06394773 0.06279356 -0.021624558
0.003695364 0.02324155 -0.0025814623 0.064403646 0.7320467 -0.070075676 -0.008305131 -0.06731373
0.16419336 0.0551993 0.13777065 0.11199433 -0.057357367 -0.016885607 0.009441644 0.7183406
-0.13883395 -0.18994687 0.038090803 0.025235139 -0.016947836 0.05783739 -0.2038683 -0.024383923
0.058440182 -0.26098934 -0.02466201 -0.053795423 0.0002811944 -0.06710603 -0.122740746 -0.07453908

net.4.bias f4 [4]
00000000: 633f 213b aa94 c1bd 3284 4d3c d99e 753b
0.0024604432 -0.094521835 0.012543725 0.0037478714
